model.pth (torch, 439732 bytes, 6 tensors)

fc1.weight f4 [128, 784]
-0.0066942186 0.0050466387 -0.014064799 -0.00022735084 -0.024176477 -0.018700955 -0.009446069 0.028252125
0.022363154 0.018300293 -0.019527314 0.032869913 0.035549413 0.009483997 0.022628317 0.003763319
0.019040033 0.010621311 0.006580806 0.026508305 0.011135543 0.008126441 -0.0071112216 0.028554771
-0.023572866 -0.01705082 -0.012264182 -0.004849654 0.024940562 0.0104859285 -0.008072968 0.013019471
0.024130201 -0.034850318 -0.03497707 0.014711705 0.001902624 0.0049679093 0.036308955 0.008290828
0.021044951 -0.024390072 -0.016517244 -0.024117423 -0.012433576 0.026714982 -0.008541136 0.025917534
0.03377373 -0.01843313 0.00014198285 -0.030259408 -0.025456158 0.0015825608 0.018367685 0.03300674
-0.025100086 -0.026463827 -0.010813603 -0.029703958 0.026174191 -0.021472285 0.013271602 0.010763074
0.030914878 -0.01196075 -0.024688406 -0.004163727 -0.002738345 0.017331464 0.013239901 0.014608543
-0.0032954914 0.012479613 0.03850117 0.012281878 -0.010852952 0.010753523 0.01167101 -0.011418653
0.030114233 0.027716737 0.01074423 -0.020351063 0.026891286 -0.02810768 0.025845693 0.025476657
-0.020616164 0.034151677 -0.012855146 -0.01252371 -0.009484209 0.03203261 0.015065596 -0.028611988
0.015107095 -0.004793414 -0.029399808 -0.027329735 0.004811214 0.04733637 0.05159129 0.0129878605
0.043343145 0.037871856 0.046272125 0.015358477 -0.02374573 -0.009369401 -0.006890861 0.0266528
-0.015437241 0.013335003 -0.0032736326 -0.008060322 0.0026759966 0.02006484 -0.020001354 -0.0012923938
0.009369229 -0.037722383 -0.039900728 0.003717987 -0.038454942 -0.03395552 0.019915557 -0.041510545
0.024469933 -0.01717192 0.027173126 0.0010891241 0.027830193 0.012517599 0.020791467 -0.014526967
-0.01940942 0.021215929 -0.0015894439 -0.007859166 -0.016487328 -0.022084963 -0.01599334 -0.0055218893
0.029903403 -0.029509343 0.01334139 0.014566405 -0.011059913 -0.013068706 -0.047623977 0.012580166
-0.0027118793 -0.011915357 0.0038684444 -0.02339119 -0.058988903 -0.028652677 -0.02350937 -0.021458855
0.025650058 -0.018604366 -0.007554746 0.019766705 0.0020552168 0.0234978 -0.020704689 -0.019874232
0.012506135 0.0013257421 -0.009330671 -0.011308574 0.0084932 -0.04282263 -0.0023651354 -0.049166255
-0.028309548 -0.019136665 -0.035716888 0.01308996 -0.032562338 -0.03914006 -0.03508817 -0.038139097
-0.039182536 -0.025579447 -0.034372903 -2.2430022e-05 0.011219883 0.03387121 0.02942604 0.011503795
0.010731454 0.01883128 -0.015123987 0.018206267 0.011245267 -0.012181361 0.020302648 0.010267391
-0.025637174 -0.019893894 -0.009041707 -0.047724303 0.019791389 -0.022541173 0.023466833 -0.029634764
-0.039724067 0.01830954 0.0042444086 0.023404928 0.03639185 -0.008142001 0.02099498 -0.011862585
-0.0065771397 -0.008272727 0.00063930935 0.026093302 -0.006581889 -0.010130329 -0.0106676025 -0.019769238
-0.017248556 -0.021005193 -0.023258584 -0.017753432 -0.0056867185 -0.013284063 0.0046829307 -0.012371442
-0.03007534 0.009785681 -0.027049426 -0.007953216 -0.032237142 -0.039309725 0.020127691 0.01863556
0.050181888 0.0046173874 -0.029588614 -0.020941846 -0.016971499 -0.032706365 -0.034286328 -0.002917223
0.010861351 0.0031180547 0.022006083 0.03490583 -0.03020118 0.019076755 -0.016444962 -0.040839072
00000000: 2d5b dbbb 465e a53b 0b70 66bc 0765 6eb9
00000010: bf0d c6bc bf32 99bc afc3 1abc 0071 e73c
00000020: ef32 b73c 7fea 953c bff7 9fbc 9aa2 063d
00000030: 439c 113d c462 1b3c 055f b93c 04a2 763b
00000040: d8f9 9b3c 0205 2e3c cda3 d73b f227 d93c
00000050: da71 363c c424 053c 4005 e9bb b2eb e93c
00000060: e21b c1bc 29ae 8bbc b5ef 48bc d9e9 9ebb
00000070: 2650 cc3c 2ccd 2b3c 7b44 04bc 9f4f 553c
00000080: b3ac c53c 35bf 0ebd 1e44 0fbd 5d09 713c
00000090: 7861 f93a d8c9 a23b b3b8 143d 41d6 073c
000000a0: 7666 ac3c b0cd c7bc 2c4f 87bc e791 c5bc
000000b0: 33b6 4bbc 61d9 da3c 1ff0 0bbc 0251 d43c
000000c0: 5356 0a3d 1301 97bc 3be1 1439 94e2 f7bc
000000d0: 6f89 d0bc ee6d cf3a d477 963c 1332 073d
000000e0: b29e cdbc abca d8bc 8a2b 31bc b755 f3bc
000000f0: 426b d63c a5e6 afbc 2271 593c 9b57 303c
00000100: 3341 fd3c 06f7 43bc 573f cabc e06f 88bb
00000110: ce75 33bb b7fa 8d3c 2bec 583c ac58 6f3c
00000120: 2cf9 57bb 4a77 4c3c 67b3 1d3d ee39 493c
00000130: 94d0 31bc 8b2f 303c c437 3f3c 4d15 3bbc
00000140: 20b2 f63c 360e e33c 9108 303c 46b7 a6bc
00000150: 1d4b dc3c 1442 e6bc 59ba d33c 6cb4 d03c
00000160: 3be3 a8bc a1e2 0b3d 649e 52bc 3f30 4dbc
00000170: a863 1bbc a034 033d b1d5 763c b063 eabc
00000180: c083 773c 1212 9dbb ded7 f0bc 9ce2 dfbc
00000190: 63a7 9d3b c8e3 413d 6351 533d 09cb 543c
000001a0: 9588 313d 851f 1b3d d787 3d3d 1fa2 7b3c
000001b0: 6886 c2bc 1e82 19bc bbcc e1bb f956 da3c
000001c0: 7bec 7cbc 0e7b 5a3c 718a 56bb 710f 04bc
000001d0: c65f 2f3b 055f a43c e1d9 a3bc 8a65 a9ba
000001e0: 6581 193c c982 1abd f26e 23bd 79a9 733b
000001f0: ee82 1dbd f114 0bbd f325 a33c f606 2abd
00000200: 2b75 c83c 20ac 8cbc 2d9a de3c f1c0 8e3a
00000210: 25fc e33c 9e16 4d3c de52 aa3c 8402 6ebc
00000220: 8100 9fbc 07cd ad3c e354 d0ba bbc3 00bc
00000230: 6f10 87bc 86eb b4bc 7704 83bc f7f0 b4bb
00000240: fbf7 f43c 94bd f1bc d895 5a3c eea7 6e3c
00000250: a334 35bc 201e 56bc 5c11 43bd 0a1d 4e3c
00000260: c9b9 31bb a138 43bc ba85 7d3b e29e bfbc
00000270: 599e 71bd 05b9 eabc b996 c0bc 7bca afbc
00000280: 1220 d23c 2f68 98bc cd8d f7bb c9ed a13c
00000290: d1b0 063b 757e c03c e19c a9bc 49cf a2bc
000002a0: 88e6 4c3c 86c4 ad3a acdf 18bc 9947 39bc
000002b0: 1027 0b3c c866 2fbd 6300 1bbb 8e62 49bd
000002c0: 6de9 e7bc 7fc4 9cbc df4b 12bd 4677 563c
000002d0: 1660 05bd 5451 20bd 9db8 0fbd be37 1cbd
000002e0: de7d 20bd fd8b d1bc 9aca 0cbd 1b28 bcb7
000002f0: 9ad3 373c 8abc 0a3d e10e f13c 6a7a 3c3c
00000300: fbd2 2f3c 0e44 9a3c 99ca 77bc 4f25 953c
00000310: 113e 383c 5594 47bc bd51 a63c 8f38 283c
00000320: 0d05 d2bc 85f8 a2bc ab23 14bc 8f7a 43bd
00000330: 8d21 a23c 44a8 b8bc 843d c03c 9bc4 f2bc
00000340: b4b5 22bd e3fd 953c ae14 8b3b b1bb bf3c
00000350: 9f0f 153d 0766 05bc aafd ab3c 4a5b 42bc
00000360: 0c85 d7bb 558a 07bc 5397 273a 9fc1 d53c
00000370: e3ac d7bb aef9 25bc 2bc7 2ebc 19f3 a1bc
00000380: d84c 8dbc 1513 acbc c988 bebc a56f 91bc
00000390: a757 babb 66a5 59bc 4573 993b 97b1 4abc
000003a0: 8f60 f6bc 1f54 203c c296 ddbc 354e 02bc
000003b0: 180b 04bd 3c03 21bd d4e2 a43c 9aa9 983c
000003c0: 868b 4d3d 744d 973b d263 f2bc 3c8e abbc
000003d0: d007 8bbc 1cf7 05bd d26f 0cbd e12e 3fbb
000003e0: cff3 313c 4758 4c3b 1a46 b43c 6af9 0e3d
000003f0: 7768 f7bc db46 9c3c 96b7 86bc df46 27bd

fc1.bias f4 [128]
0.014739894 0.010021347 -0.0024064668 0.020835014 -0.009066988 0.013776778 0.032603472 -0.0038221308
-0.0077518327 0.02091428 -0.031639658 0.0030234647 0.017390363 -0.021225238 -0.023153253 -0.031043096
0.013582807 0.026578857 -0.004320253 0.010280436 0.013438226 0.013239425 0.01447185 -0.0042823185
-0.023242965 -0.03509868 -0.0042377124 -0.025208674 0.034569424 -0.023630021 -0.022447525 0.03326247
0.014385549 0.010734908 0.02996841 0.030993473 0.021477891 -0.028132074 -0.011038481 0.0033230395
0.033457316 -0.0018420997 0.008527668 0.01959492 0.0009321855 0.01981023 0.035881873 -0.018881137
-0.0106906 0.031321708 -0.0032638013 0.014771631 0.02047513 0.0010767839 -0.0052775876 0.00932646
0.021312535 -0.0016744136 -0.006391092 0.01523242 -0.019624427 -0.008680095 0.022969251 0.02231751
-0.01250222 -0.022121198 -0.0035122025 0.034122765 -0.026927557 -0.0008277612 0.013493968 0.026196932
-0.03129194 -0.0027732102 -0.005812224 -0.027888035 -0.002602795 0.007435553 0.0039409706 0.007681182
0.021887427 -0.03200604 0.0256925 -0.02846589 0.026067777 0.030579334 -0.008984234 -0.0008544549
0.03051727 -0.0022330678 0.02910996 0.026089754 -0.0062710536 0.031292364 -0.0014820639 -0.028060667
-0.012866271 0.0023641787 -0.03107558 0.003344368 -0.007866464 0.0022395614 0.031651933 -0.011237462
0.035852104 -0.014199281 0.00026169847 -0.025490185 0.015737925 0.0146623235 0.014187568 -0.02350212
0.013008545 -0.0059897085 -0.036263384 -0.008134904 -0.03478087 -0.011098612 0.00080778846 -0.017974252
0.012788688 0.014760155 -0.032861084 0.0025656163 -0.009860622 0.005533652 0.031805795 0.030391103
00000000: 997f 713c 9330 243c d0b5 1dbb 31ae aa3c
00000010: b48d 14bc ffb7 613c 388b 053d b77c 7abb
00000020: 1603 febb 6d54 ab3c 9698 01bd 5225 463b
00000030: 3c76 8e3c 8de0 adbc e4ab bdbc 174e febc
00000040: 6c8a 5e3c e7bb d93c e990 8dbb 466f 283c
00000050: 012c 5c3c 2cea 583c 571b 6d3c b152 8cbb
00000060: 0868 bebc a2c3 0fbd 82dc 8abb 6c82 cebc
00000070: ab98 0d3d bf93 c1bc dfe3 b7bc 3a3e 083d
00000080: 5eb1 6b3c 78e1 2f3c 5080 f53c 06e6 fd3c
00000090: 67f2 af3c 3c75 e6bc bfda 34bc 5ac7 593b
000000a0: 8a0a 093d 9c72 f1ba a2b7 0b3c 8785 a03c
000000b0: e95d 743a 1049 a23c dff8 123d 9dac 9abc
000000c0: a027 2fbc 314b 003d 80e5 55bb b604 723c
000000d0: 76bb a73c df22 8d3a 9def acbb 02ce 183c
000000e0: a097 ae3c ff77 dbba 5e6c d1bb 6691 793c
000000f0: 68c3 a0bc f536 0ebc 032a bc3c 36d3 b63c
00000100: 1dd6 4cbc 8437 b5bc fb2c 66bb 50c4 0b3d
00000110: 2e97 dcbc 1dfe 58ba ce15 5d3c f39a d63c
00000120: fa2b 00bd bfbe 35bb 7874 bebb 7375 e4bc
00000130: a793 2abb f0a5 f33b 4223 813b 6db2 fb3b
00000140: 434d b33c c418 03bd 1479 d23c 4c31 e9bc
00000150: 178c d53c 8381 fa3c 9c32 13bc 7ffd 5fba
00000160: 5bff f93c a958 12bb 0378 ee3c 2eba d53c
00000170: 697d cdbb 6c2c 003d d041 c2ba 7cdf e5bc
00000180: 0dcd 52bc 56f0 1a3b 3792 febc 2f2d 5b3b
00000190: 57e2 00bc 9bc5 123b 75a5 013d 551d 38bc
000001a0: a8d9 123d 1aa4 68bc 9334 8939 cbd0 d0bc
000001b0: d2ec 803c 3e3a 703c f972 683c 8587 c0bc
000001c0: cb21 553c 5145 c4bb ea88 14bd 4348 05bc
000001d0: 6376 0ebd f4d6 35bc c4c1 533a bd3e 93bc
000001e0: a587 513c 94d4 713c 5899 06bd e623 283b
000001f0: 728e 21bc a353 b53b cb46 023d c3f6 f83c

fc2.weight f4 [64, 128]
-0.022266693 0.23809451 -0.05626424 -0.058452517 0.01859352 0.025142502 -0.08160824 -0.10877616
-0.03988549 0.21337473 0.06727728 0.060522463 -0.065921426 0.08555096 0.09999133 0.08333176
-0.07600356 0.07031604 0.12077079 0.0071237297 0.065476306 0.119035326 0.04922103 0.12815899
-0.027879866 0.034936484 -0.010308273 0.0754789 0.11668632 -0.05963053 0.06999868 0.07012926
-0.011811578 0.030038986 -0.018058868 0.04244818 0.22725275 0.018342348 0.10435684 -0.120666385
0.1446491 0.1189946 -0.14715855 0.0006815883 0.043646753 0.03046108 0.085742556 0.06577484
0.14427221 -0.019071288 -0.25478867 -0.06119901 0.040454544 -0.099114865 0.09764189 0.03458822
-0.055935644 0.13818394 0.12950122 -0.029664833 -0.02085592 -0.0058849836 0.09989515 -0.10909738
-0.07361778 0.033476587 0.084257565 -0.03134337 -0.10074838 0.019086277 0.13407516 0.08994473
0.13138285 -0.17894793 -0.011618892 0.12963586 -0.031066453 0.02740039 0.02068304 0.11831689
-0.11015164 -0.08376427 0.07277661 0.077229045 -0.0094334 -0.06692733 0.13218139 0.015725719
-0.0576023 -0.008256154 -0.07214628 0.06663966 -0.043364316 0.05037515 -0.0052539404 0.05912637
0.013514853 0.116322026 -0.052772995 0.018784463 -0.13876499 0.071138695 0.054755945 0.030573614
0.15794776 -0.08675818 -0.05907913 -0.0035987338 0.081461124 -0.06439393 0.09143237 0.060689367
0.08827294 0.10129032 0.116213106 -0.16080938 0.04089619 0.015824176 -0.168861 -0.022362985
0.04747552 -0.118968695 0.07034611 -0.0389788 0.013266577 -0.09373946 0.07417361 -0.047497608
0.1014593 -0.02019967 0.139683 0.038331665 0.099507 -0.03430181 0.07193353 -0.15096614
-0.12308115 -0.13755034 -0.009187047 -0.04677083 -0.08999393 0.05921722 0.07328294 0.07060448
-0.080571786 0.006253552 0.09596874 0.09049731 0.122066416 -0.1884335 0.024807341 -0.049119473
-0.024692805 0.042629484 0.028735466 0.06168194 -0.01698861 -0.0036381974 0.0673551 -0.015352974
-0.09828918 0.009815689 -0.033344544 -0.08263723 -0.02418176 -0.0865914 0.026132891 -0.04476026
0.016235964 -0.08281596 -0.16054131 0.008964276 0.0770711 0.05320857 -0.04069716 0.1508141
-0.12927963 -0.073506296 0.11132455 -0.23259002 -0.040116012 -0.025319697 0.10927046 0.055037495
-0.24645595 0.094899714 0.0098851845 0.012613716 0.029976891 -0.07596882 -0.1975739 0.103881046
0.17929845 0.039471507 0.0028117388 -0.0074051684 0.0010434571 0.010772866 0.0028358595 0.09122952
-0.025578424 -0.010537796 -0.047457527 -0.11518466 -0.049119733 0.022720383 -0.048247512 -0.015623779
-0.06736509 0.052692674 0.08727193 -0.021178842 0.009303715 0.008893433 -0.08962634 -0.062795825
-0.03329436 0.07541808 -0.041903447 -0.026928678 0.037700254 0.107060246 0.0949179 -0.035325874
0.17392771 -0.075276405 -0.06092769 0.04577121 -0.13036726 0.029480176 0.068770975 -0.073773004
0.110617764 0.027955914 -0.047066562 0.08378485 -0.08425416 0.0076748664 -0.10713309 0.06419316
0.17218113 -0.031498298 0.049828824 0.1357406 0.044635955 0.11919594 -0.12407325 0.09057355
-0.12459049 0.12750857 -0.0011204489 0.17024931 -0.15125018 -0.09397064 -0.11957189 0.14847726
00000000: a468 b6bc 0ccf 733e 5575 66bd e86b 6fbd
00000010: 7051 983c a6f7 cd3c 3922 a7bd 09c6 debd
00000020: f85e 23bd e87e 5a3e acc8 893d 67e6 773d
00000030: d001 87bd 5735 af3d 41c8 cc3d d7a9 aa3d
00000040: c1a7 9bbd db01 903d ad56 f73d 2d6e e93b
00000050: 7118 863d cbc8 f33d fe9b 493d 1c3c 033e
00000060: 5164 e4bc 8f19 0f3d 08e4 28bc ae94 9a3d
00000070: 3df9 ee3d 253f 74bd 785b 8f3d ee9f 8f3d
00000080: 5985 41bc 5214 f63c 31f0 93bc 25de 2d3d
00000090: f2b4 683e b142 963c 0ab9 d53d f01f f7bd
000000a0: e51e 143e 71b3 f33d bbb0 16be 9eac 323a
000000b0: f0c6 323d 8489 f93c cb99 af3d f6b4 863d
000000c0: 18bc 133e 643b 9cbc a973 82be d0ab 7abd
000000d0: aab3 253d bcfc cabd 79f8 c73d 61ac 0d3d
000000e0: c61c 65bd 1780 0d3e f89b 043e aa03 f3bc
000000f0: 09da aabc d2d6 c0bb d495 cc3d 726e dfbd
00000100: ebc4 96bd bf1e 093d 3b8f ac3d e861 00bd
00000110: 2b55 cebd d35a 9c3c 004b 093e f134 b83d
00000120: 3a89 063e 203e 37be 2a5d 3ebc 43bf 043e
00000130: 137f febc c876 e03c 7b6f a93c 2050 f23d
00000140: 2f97 e1bd 9a8c abbd e70b 953d 432a 9e3d
00000150: 8c8e 1abc 3211 89bd 8f5a 073e 39d3 803c
00000160: 64f0 6bbd d244 07bc 6ec1 93bd 607a 883d
00000170: c89e 31bd 2c56 4e3d 3f29 acbb 7e2e 723d
00000180: 676d 5d3c 3e3a ee3d 7f28 58bd e0e1 993c
00000190: 6918 0ebe 2ab1 913d c547 603d 8475 fa3c
000001a0: 0fbd 213e 46ae b1bd f5fc 71bd bcd8 6bbb
000001b0: 17d5 a63d f7e0 83bd e540 bb3d 6a95 783d
000001c0: 71c8 b43d 4d71 cf3d 2301 ee3d 37ab 24be
000001d0: c382 273d b4a1 813c e6e9 2cbe 9432 b7bc
000001e0: b175 423d dca5 f3bd 9f11 903d 3ca8 1fbd
000001f0: 0f5c 593c 79fa bfbd 55e8 973d da8c 42bd
00000200: e5c9 cf3d c779 a5bc 0f09 0f3e aa01 1d3d
00000210: 53ca cb3d 0e80 0cbd e351 933d de96 1abe
00000220: f811 fcbd ffd9 0cbe 4585 16bc c592 3fbd
00000230: bd4e b8bd c18d 723d 5e15 963d 1599 903d
00000240: d202 a5bd 99ea cc3b 428b c43d a756 b93d
00000250: f5fd f93d b6f4 40be c438 cb3c 8031 49bd
00000260: 9148 cabc 419c 2e3d a466 eb3c 34a6 7c3d
00000270: b32b 8bbc d36e 6ebb 78f1 893d 0a8b 7bbc
00000280: d64b c9bd fcd1 203c 4a94 08bd b53d a9bd
00000290: d418 c6bc d556 b1bd a514 d63c 8956 37bd
000002a0: 4901 853c 6a9b a9bd f164 24be e6de 123c
000002b0: 74d7 9d3d 3bf1 593d 11b2 26bd 036f 1a3e
000002c0: e161 04be 788a 96bd 20fe e33d 142c 6ebe
000002d0: b050 24bd 416b cfbc 31c9 df3d ff6e 613d
000002e0: f35e 7cbe c85a c23d 78f5 213c c2a9 4e3c
000002f0: 1992 f53c 8a95 9bbd d050 4abe 96bf d43d
00000300: 039a 373e e0ac 213d 2645 383b 0ea7 f2bb
00000310: 9cc4 883a ad80 303c d4d9 393b 8bd6 ba3d
00000320: d889 d1bc b8a6 2cbc d362 42bd efe5 ebbd
00000330: c631 49bd 1920 ba3c 2f9f 45bd e1fa 7fbc
00000340: b5f6 89bd 46d4 573d a0bb b23d 407f adbc
00000350: 9c6e 183c c3b5 113c 048e b7bd 199b 80bd
00000360: ab5f 08bd cb74 9a3d f3a2 2bbd 8899 dcbc
00000370: 956b 1a3d 6742 db3d 5164 c23d ddb1 10bd
00000380: 1b1a 323e 842a 9abd 508f 79bd 987a 3b3d
00000390: ff7e 05be 6980 f13c ccd7 8c3d 4d16 97bd
000003a0: 918b e23d cd03 e53c dec8 40bd 6497 ab3d
000003b0: 728d acbd 727d fb3b 9868 dbbd b477 833d
000003c0: 4050 303e 5c04 01bd 4f19 4c3d 95ff 0a3e
000003d0: 31d4 363d 001d f43d 1e1a febd a07e b93d
000003e0: 4c29 ffbd 9b91 023e 07dc 92ba d655 2e3e
000003f0: 54e1 1abe ae73 c0bd 1be2 f4bd 6c0a 183e

fc2.bias f4 [64]
0.06911606 0.06913359 -0.08805031 -0.08962844 -0.078969344 0.038244586 -0.045974553 0.029113343
-0.0015679833 0.04642054 0.078955375 -0.027431773 0.050858553 0.058952343 -0.046794888 0.020365985
-0.060062453 -0.035267908 -0.0068391813 -0.07605128 -0.003987694 0.01600869 0.020544427 -0.028693683
0.03652861 0.079373874 0.08348341 -0.0787906 -0.09271183 -0.049083035 0.03016811 0.07561735
0.09889404 0.094992764 0.06141439 0.059251823 0.028521022 -0.020442076 0.06466644 -0.0034732393
0.029850718 -0.036327038 0.059749696 0.08955251 -0.053650647 0.1196646 0.052968413 -0.05821533
0.069968715 -0.039070014 -0.06433942 -0.015780399 -0.07365652 -0.03615055 -0.010452996 0.03506252
-0.05847507 0.050530262 -0.044310044 -0.052317332 0.05556717 0.04978126 0.060469136 0.109218314
00000000: b98c 8d3d e995 8d3d b953 b4bd 1e8f b7bd
00000010: aeba a1bd 5ba6 1c3d d04f 3cbd 1b7f ee3c
00000020: ca84 cdba 7723 3e3d 5bb3 a13d 99b8 e0bc
00000030: 0f51 503d 0378 713d ffab 3fbd 91d6 a63c
00000040: 0c04 76bd 1575 10bd 361b e0bb c6c0 9bbd
00000050: 34ab 82bb a824 833c c94c a83c 040f ebbc
00000060: 069f 153d c58e a23d 5af9 aa3d f75c a1bd
00000070: b3df bdbd 4b0b 49bd 1d23 f73c 45dd 9a3d
00000080: f588 ca3d 918b c23d a88d 7b3d 0ab2 723d
00000090: eba4 e93c 2476 a7bc d76f 843d 499f 63bb
000000a0: 7e89 f43c a9cb 14bd 19bc 743d 4e67 b73d
000000b0: c8c0 5bbd b712 f53d 68f5 583d 3373 6ebd
000000c0: c24b 8f3d e107 20bd 63c4 83bd e545 81bc
000000d0: 3bd9 96bd 9912 14bd 0b43 2bbc b89d 0f3d
000000e0: 8e83 6fbd d2f8 4e3d 737e 35bd b34a 56bd
000000f0: 679a 633d 6fe7 4b3d 7cae 773d daad df3d

fc3.weight f4 [10, 64]
-0.30035844 0.08937095 -0.1507795 -0.03748009 -0.13024671 -0.1057536 0.04088236 -0.048081934
0.32980788 -0.37368086 -0.11144168 -0.07142759 0.22894254 -0.11819182 0.05082135 0.22852977
0.07799486 -0.12762119 -0.009188726 -0.05271662 -0.0748076 0.1413942 0.052880295 -0.07421787
-0.06867236 0.42587072 -0.29547545 0.26972198 0.08881875 -0.079051115 0.04548324 0.43375325
-0.0055691157 0.13230994 0.0026877585 0.1869961 -0.07266316 0.022520918 -0.017011002 -0.42384773
-0.104226045 -0.00092305767 -0.33738133 0.3321946 -0.07738376 -0.43780226 -0.06741886 -0.059138108
-0.055614367 -0.19870603 0.24799377 -0.32523364 -0.13071732 -0.14286338 -0.08152736 -0.17532404
-0.14871025 0.26222783 0.24805123 -0.24831314 0.01945586 0.096485265 -0.025834927 -0.14955825
-0.050437417 -0.3364963 -0.31735757 0.42925256 0.0006537527 -0.08145047 -0.1846357 0.111043565
-0.37955636 -0.17147805 0.116591476 0.1234328 -0.22947308 0.39994556 -0.0052060876 0.010697042
-0.12171967 0.05666758 0.23169875 0.008379551 0.28860596 0.07463523 0.0037194379 0.020150056
0.17930466 -0.33177388 0.11714629 0.40129432 -0.020456295 0.09154351 -0.03675544 -0.3503842
-0.0186853 0.14105082 0.27597266 -0.2784338 0.06331934 0.06336693 0.23910677 0.4363593
-0.066681296 -0.20197497 0.24340431 -0.18183047 -0.15628919 0.2661717 -0.022991268 -0.08143556
0.07504034 -0.055355594 -0.2177513 -0.22938712 0.10850248 0.08638201 -0.05711181 0.39164776
0.0248895 -0.14899287 0.009175883 0.013160277 -0.17643218 -0.0027804 0.02901005 -0.075338125
0.46767613 -0.2598651 -0.20689137 0.38694152 0.01957646 0.15143278 0.21034369 0.25758913
0.12519516 -0.16181657 -0.057285056 0.00834993 -0.15673472 0.08670362 0.11737651 -0.17163968
-0.11165951 -0.017104836 -0.176594 0.39249992 -0.3477957 -0.04558497 -0.044928476 -0.033563986
0.16972674 -0.11865616 0.37015077 -0.018912794 0.33402553 0.042965773 -0.11521075 -0.18364516
0.13197507 0.006876879 -0.3422341 0.43568772 -0.07411738 0.07059013 0.21852446 -0.07386744
-0.020911073 0.14420724 -0.18393268 0.24182682 -0.18544249 -0.6194661 0.055287737 0.123929344
-0.037655953 0.1295097 -0.08013481 0.010626312 -0.15181385 -0.21535994 -0.15418127 0.32433236
-0.022176586 0.2114617 0.07797295 -0.11977974 0.12610921 -0.06643291 0.31559202 -0.16608429
0.309703 -0.1707034 -0.22435272 -0.396561 0.22079669 -0.0515762 -0.024310838 -0.14104508
0.1790524 0.21711607 0.123412356 -0.21057248 -0.066922545 0.13780327 -0.2285089 0.21679823
0.06486132 -0.1680104 -0.39283806 -0.05739145 0.09276245 -0.196355 -0.026924334 0.01636286
-0.0085833045 0.12614602 -0.07937692 -0.22507349 0.16960503 -0.047407605 0.23585418 -0.38988614
-0.012958937 -0.059361305 0.047609013 0.27381158 -0.07448167 -0.09655816 -0.028388228 0.054407876
-0.1552025 -0.03478458 -0.28621846 -0.064248055 0.13567045 0.5006426 -0.023780446 -0.12474257
0.35683617 0.33871043 -0.02646083 0.010884289 0.16176715 0.1637273 0.19177753 0.03165712
-0.06364414 0.20807941 -0.13625307 -0.15905032 -0.2630042 0.14203231 0.30718133 0.3359655
00000000: 95c8 99be 1e08 b73d f165 1abe b984 19bd
00000010: 655f 05be 5895 d8bd 4374 273d 90f1 44bd
00000020: 94dc a83e 1953 bfbe 893b e4bd a148 92bd
00000030: ea6f 6a3e 8e0e f2bd 0c2a 503d b503 6a3e
00000040: c5bb 9f3d 21af 02be 4f8c 16bc 62ed 57bd
00000050: ba34 99bd a4c9 103e 0299 583d 8aff 97bd
00000060: 18a4 8cbd ba0b da3e 8f48 97be 0019 8a3e
00000070: 9be6 b53d 8de5 a1bd a24c 3a3d e814 de3e
00000080: 217d b6bb 427c 073e 1b25 303b e87b 3f3e
00000090: 6cd0 94bd ca7d b83c a85a 8bbc 9202 d9be
000000a0: 7774 d5bd 5af9 71ba 3fbd acbe 6915 aa3e
000000b0: 607b 9ebd 9e27 e0be e612 8abd cd3a 72bd
000000c0: e4cb 63bd 9879 4bbe 14f2 7d3e 0685 a6be
000000d0: c3da 05be c74a 12be d1f7 a6bd 2588 33be
000000e0: 8047 18be ba42 863e 2401 7e3e cd45 7ebe
000000f0: e561 9f3c 119a c53d c5a3 d3bc cc25 19be
00000100: 7797 4ebd 3e49 acbe b17c a2be fec6 db3e
00000110: 9a60 2b3a 81cf a6bd 2411 3dbe cf6a e33d
00000120: 3655 c2be f197 2fbe 83c7 ee3d 56ca fc3d
00000130: fefa 6abe aac5 cc3e d497 aabb a542 2f3c
00000140: 2a48 f9bd 441c 683d 7042 6d3e 624a 093c
00000150: 29c4 933e 5bda 983d d0c1 733b bb11 a53c
00000160: a49b 373e 44de a9be 65ea ef3d 7376 cd3e
00000170: f693 a7bc 2a7b bb3d df8c 16bd 8f65 b3be
00000180: ea11 99bc a06f 103e 4a4c 8d3e e08e 8ebe
00000190: 92ad 813d 85c6 813d 68d8 743e 7c6a df3e
000001a0: 3490 88bd 87d2 4ebe fb3e 793e c431 3abe
000001b0: 460a 20be a847 883e 2f58 bcbc b0c7 a6bd
000001c0: c0ae 993d 8cbc 62bd 32fa 5ebe 75e4 6abe
000001d0: 8c36 de3d 0de9 b03d 13ee 69bd 0e86 c83e
000001e0: 11e5 cb3c 9691 18be 7156 163c 349e 573c
000001f0: a3aa 34be 5f37 36bb 7ca6 ed3c e04a 9abd
00000200: 3f73 ef3e 0a0d 85be 55db 53be 331d c63e
00000210: d05e a03c 3211 1b3e 5664 573e b9e2 833e
00000220: 2933 003e 3eb3 25be bca3 6abd 25ce 083c
00000230: 117f 20be ab91 b13d 1863 f03d 50c2 2fbe
00000240: bead e4bd 711f 8cbc 0fd5 34be c0f5 c83e
00000250: 4712 b2be 4eb7 3abd ec06 38bd 647a 09bd
00000260: d9cc 2d3e 0002 f3bd 6784 bd3e 01ef 9abc
00000270: 6505 ab3e e1fc 2f3d 9df3 ebbd 7a0d 3cbe
00000280: 7924 073e 7157 e13b 4f39 afbe 7612 df3e
00000290: daca 97bd 8f91 903d e0c4 5f3e d047 97bd
000002a0: b34d abbc 10ab 133e d958 3cbe 73a1 773e
000002b0: a3e4 3dbe 5595 1ebf 6575 623d abce fd3d
000002c0: 213d 1abd 319e 043e b81d a4bd fc19 2e3c
000002d0: 1775 1bbe 5187 5cbe b2e1 1dbe e40e a63e
000002e0: acab b5bc 6a89 583e 48b0 9f3d 154f f5bd
000002f0: c622 013e fa0d 88bd 4795 a13e 0012 2abe
00000300: 6491 9e3e dfcc 2ebe b8bc 65be 0b0a cbbe
00000310: 8718 623e 9141 53bd 8627 c7bc 1f6e 10be
00000320: 8359 373e ad53 5e3e 9ebf fc3d 50a0 57be
00000330: b00e 89bd 4d1c 0d3e 3dfe 69be 5b00 5e3e
00000340: 03d6 843d eb0a 2cbe 1222 c9be 4c13 6bbd
00000350: 3dfa bd3d 4911 49be 6c90 dcbc 680b 863c
00000360: fda0 0cbc 6c2c 013e 5e90 a2bd aa79 66be
00000370: f1ac 2d3e 7a2e 42bd c283 713e 289f c7be
00000380: b951 54bc d724 73bd ab01 433d 0831 8c3e
00000390: d989 98bd 49c0 c5bd 6e8e e8bc cbda 5e3d
000003a0: 67ed 1ebe 477a 0ebd 3a8b 92be 7c94 83bd
000003b0: 32ed 0a3e 1d2a 003f 36cf c2bc 0879 ffbd
000003c0: 3bb3 b63e 746b ad3e 62c4 d8bc 0454 323c
000003d0: 4aa6 253e 21a8 273e 5461 443e e5aa 013d
000003e0: dc57 82bd c512 553e ed85 0bbe 16de 22be
000003f0: 7da8 86be eb70 113e df46 9d3e ac03 ac3e

fc3.bias f4 [10]
-0.03494639 0.011636567 0.027717672 0.0038481287 -0.0008453096 -0.09994238 0.040323656 -0.095688246
0.0816337 0.060214516
00000000: f223 0fbd 4da7 3e3c 2c10 e33c e330 7c3b
00000010: c497 5dba 97ae ccbd 6b2a 253d 33f8 c3bd
00000020: 922f a73d 7fa3 763d
